graph_neural_network/model.pth (torch, 13824 bytes, 4 tensors)

bias f4 [16]
000000 2d 5c b1 3f 80 45 61 3f 00 00 00 00 10 c9 98 be
       1.3856255 0.87996674 0.0 -0.298409
000010 38 46 d6 bf ea 76 ab 3f f3 02 c4 3f d4 7c 87 bf
       -1.6740179 1.3395665 1.53134 -1.058497
000020 5d d4 13 3e 27 3c 1c bd 9f 3a 10 c0 8d 5d 74 3f
       0.14436479 -0.038143303 -2.253578 0.9545525
000030 d0 c9 af bf 00 00 00 00 00 00 00 00 f0 72 61 3f
       -1.3733463 0.0 0.0 0.88066006

weight f4 [16, 5]
000000 f6 45 b1 3f 94 19 4b 3b 24 65 55 bb 93 4e ff bf
       1.3849475 0.0030990588 -0.0032561505 -1.9945854
000010 a0 e7 ef bf 20 06 a9 be f7 e6 73 bc cf b5 47 bc
       -1.8742561 -0.33012486 -0.014886609 -0.012189343
000020 2b 42 58 3c 5f 0f c8 bf 86 a6 4e be f1 da d7 be
       0.013199369 -1.5629691 -0.20180711 -0.42159227
000030 1e 10 95 3e 87 57 86 be e5 73 87 be a4 f2 8c 3f
       0.2911386 -0.26238653 -0.26455608 1.1011548
000040 83 08 68 3c c9 b2 e1 3c 02 f2 e1 bf 39 ca 9f 3e
       0.014162186 0.027551072 -1.765198 0.3120897
000050 c1 99 6d 3f e8 e0 1e bc b9 38 0e bc b5 82 ec 3e
       0.92812735 -0.0096971765 -0.008680516 0.46193472
000060 4c bb 10 3f 3a aa 66 c0 3b 7d 68 3d 1f 37 d0 3a
       0.5653579 -3.6041398 0.056760054 0.0015885568
000070 57 15 0a 40 fb 20 e2 bd 00 74 90 3e 0c 22 88 3b
       2.1575525 -0.11041447 0.282135 0.0041544493
000080 42 06 7e 3c c2 c2 1d 3e 93 63 ba 3e c2 61 70 3f
       0.015504422 0.15406325 0.36404094 0.93899167
000090 08 47 a4 bf 6d 9e 5d bd 82 28 0b 3e 7a 1e 4e 3e
       -1.2834177 -0.054106165 0.13589671 0.20128813
0000a0 1c fb 84 be aa 24 4a be 29 bd 50 bf c2 60 59 be
       -0.2597283 -0.19740549 -0.81538635 -0.21228316
0000b0 b2 62 d7 3d ac 61 03 40 1c 59 86 3c 65 da 60 3b
       0.105168715 2.0528364 0.016399913 0.003430986
0000c0 5d c6 93 bf 80 f2 9e bf 3d 5e ed 3f d3 38 85 3b
       -1.1544911 -1.2417755 1.8544384 0.004065612
0000d0 a0 a8 d4 ba 31 c5 a1 3d 09 c8 95 3d 02 ac b7 bf
       -0.001622457 0.078989394 0.07313544 -1.4349368
0000e0 10 b5 41 3c 86 78 3d ba 1c f9 e5 3e aa 24 e3 3e
       0.011822954 -0.0007227737 0.44916618 0.4436391
0000f0 47 fc 7d bf 1c cb b1 3c 5a cd d6 3c 88 56 02 40
       -0.9921307 0.021703295 0.026220966 2.0365314
000100 90 b1 a0 3d 1c 2b 45 be b3 37 b2 3d 95 d3 d6 3d
       0.07846367 -0.19254726 0.0870203 0.10489575
000110 6f f7 98 be bf a5 df be 22 1a ed bd 72 d8 11 be
       -0.29876277 -0.43681142 -0.1157725 -0.14242724
000120 67 7c 15 be 5c 81 6b be 2d cc 9f bd f5 72 3f c0
       -0.14598237 -0.22998565 -0.07802615 -2.9913914
000130 30 e3 10 bc bc 0c 62 ba df 0f 41 bd 9d d5 03 40
       -0.008843228 -0.00086231134 -0.047134276 2.059913

bias f4 [8]
000000 09 0e 84 bf 92 cc 9f bf f9 a2 32 c0 42 f8 48 c0
       -1.0316783 -1.2484305 -2.791197 -3.1401525
000010 23 e1 3c bf a7 1c 83 3e e5 ac ee 3f d3 86 97 40
       -0.7378103 0.25607798 1.8646513 4.735208

weight f4 [8, 16]
000000 2b f4 68 40 fe b7 45 3f 20 5c 37 be 65 c9 56 be
       3.6399028 0.77233875 -0.17906237 -0.20975263
000010 aa fc cc bf 5b de 97 40 cc 1f 8a 3c 93 6a 8f 3e
       -1.6014607 4.745893 0.016860865 0.28010997
000020 85 08 df 3e a4 f1 34 c0 c9 cd b3 be de b9 e1 3f
       0.43561187 -2.8272486 -0.3511794 1.7634847
000030 27 7b 44 c0 7e c7 9e 3e f8 b1 b8 bd cc 92 be 3f
       -3.0700166 0.31011575 -0.0901832 1.4888549
000040 00 b7 2e 40 cd 13 85 3d 90 fe ff bd 2b 88 db be
       2.7299194 0.06497917 -0.12499726 -0.42877325
000050 18 9f 21 bf eb 73 53 41 89 30 52 3f 1f 67 98 be
       -0.6313338 13.2158 0.8210531 -0.29766175
000060 7b 65 c6 bd e9 5b d9 bf 0a c1 a2 c0 7b 56 12 bc
       -0.096873246 -1.6981174 -5.0860643 -0.008931751
000070 0c 18 17 bf 26 15 b6 3e 8a ab 89 be 8c d2 5a 41
       -0.5902107 0.3556301 -0.26888686 13.676403
000080 3e 6c d7 3e 79 27 70 be 64 93 cb 3e 1d 6a d1 be
       0.4207477 -0.23452558 0.39760888 -0.4090127
000090 5f 8c f7 3e 46 e9 49 c0 f6 a4 be 3f 14 45 6e bc
       0.48349282 -3.1548629 1.4894092 -0.014542837
0000a0 e3 ec 99 bd 55 ac 2b 3d af 9f 44 c1 f9 2c 51 bf
       -0.07515886 0.041912396 -12.288985 -0.8170925
0000b0 2b d8 1b 40 de 7f e9 3e 40 35 b4 3e 84 11 d5 bf
       2.4350688 0.45605367 0.35196877 -1.664597
0000c0 fe 58 2a be 46 96 da 3e 50 46 7f bd 4e e6 17 be
       -0.1663551 0.42692775 -0.062322915 -0.14833948
0000d0 b2 8c b5 3e 30 42 d7 bf 61 13 d2 3f 42 fb c4 3e
       0.35458905 -1.6817074 1.6412164 0.38472944
0000e0 ce 3c a0 be e3 2c 48 3e 2a 52 4c c1 d1 00 8e bf
       -0.3129639 0.19548373 -12.77006 -1.1093999
0000f0 70 4f 33 40 f4 23 9c be a4 5a 88 be 00 28 49 c0
       2.8017235 -0.3049618 -0.26631653 -3.1430664
000100 82 0c 5a bf 65 55 c8 be 6e 12 9c be 8a aa 77 be
       -0.85175335 -0.3912765 -0.3048281 -0.24186149
000110 d1 5f 6b 3f 28 b8 a0 c0 e8 46 0e 3f 46 09 2a be
       0.9194308 -5.02248 0.55576944 -0.166051
000120 34 5a 49 be 8c 78 89 3f 33 75 0d c1 85 06 b6 3f
       -0.19663316 1.0739913 -8.841113 1.422074
000130 26 fb 8d 40 08 1a f8 be bc e5 95 be e6 7a c4 c0
       4.436908 -0.4845736 -0.29276836 -6.1400023
000140 56 c1 42 c0 01 57 ab 3f 60 14 25 3d 1b fd 77 3f
       -3.0430503 1.3385926 0.040302634 0.96870583
000150 7b 6c 7c bf 8b f0 0a 40 bb 31 69 be fd a3 32 be
       -0.9860303 2.1709316 -0.22772877 -0.17445369
000160 1d 24 14 be 21 f1 c7 3f 0a 73 09 41 9d 8c b0 bf
       -0.14466901 1.5620462 8.590586 -1.3792912
000170 8d d4 f9 bf 78 be 81 be 40 a5 dd be 0f ad 45 c0
       -1.951799 -0.2534063 -0.43290138 -3.0886877
000180 42 1e b1 bd bd fa 07 3f d8 21 aa be 1c e4 b8 3e
       -0.08648349 0.5311697 -0.33228946 0.36111534
000190 5d 00 16 bf 6f 0e 46 40 56 5e 81 bf ac be e2 bd
       -0.58594304 3.094631 -1.0106914 -0.11071524
0001a0 3e 96 7a be 74 35 cc be 7a 8c 18 41 5a 8f 2a 3f
       -0.24471375 -0.39884531 9.534296 0.6662499
0001b0 be b1 e4 bf a2 0b d2 3e 1a 9f 93 3e 62 70 3f 3d
       -1.7866743 0.410245 0.28832322 0.046738036
0001c0 a7 43 66 c0 98 b7 10 bf b8 30 ba bd f3 41 25 3f
       -3.5978792 -0.5653014 -0.090913236 0.64553756
0001d0 93 4e 9c 3f 72 9d 6d 40 38 50 0f c0 ee e8 36 3f
       1.2211479 3.7127347 -2.2392712 0.7144917
0001e0 aa b8 8e 3e b4 0d 28 40 68 97 33 41 6f 29 3e bf
       0.27875262 2.6258364 11.224464 -0.7428197
0001f0 b0 c5 93 be 00 17 1e 3b c4 c1 75 3e f4 b0 82 40
       -0.2886176 0.0024122596 0.23999697 4.0841007
